…
You have disabled the safety checker for <class 'diffusers.pipelines.stable_diffusion.pipeline_stable_diffusion.StableDiffusionPipeline'> by passing `safety_checker=None`. Ensure that you abide to the conditions of the Stable Diffusion license and do not expose unfiltered results in services or applications open to the public. Both the diffusers team and Hugging Face strongly recommend to keep the safety filter enabled in all public facing circumstances, disabling it only for use-cases that involve analyzing network behavior or auditing its results. For more information, please have a look at https://github.com/huggingface/diffusers/pull/254 .
self.unet=PeftModel(
  (base_model): LoraModel(
    (model): UNet2DConditionModel(
      (conv_in): Conv2d(4, 320, kernel_size=(3, 3), stride=(1, 1), padding=(1, 1))
      (time_proj): Timesteps()
      (time_embedding): TimestepEmbedding(
        (linear_1): Linear(in_features=320, out_features=1280, bias=True)
        (act): SiLU()
        (linear_2): Linear(in_features=1280, out_features=1280, bias=True)
      )
      (down_blocks): ModuleList(
        (0): CrossAttnDownBlock2D(
          (attentions): ModuleList(
            (0-1): 2 x Transformer2DModel(
              (norm): GroupNorm(32, 320, eps=1e-06, affine=True)
              (proj_in): Conv2d(320, 320, kernel_size=(1, 1), stride=(1, 1))
              (transformer_blocks): ModuleList(
                (0): BasicTransformerBlock(
                  (norm1): LayerNorm((320,), eps=1e-05, elementwise_affine=True)
                  (attn1): Attention(
                    (to_q): lora.Linear(
                      (base_layer): Linear(in_features=320, out_features=320, bias=False)
                      (lora_dropout): ModuleDict(
                        (default): Identity()
                      )
                      (lora_A): ModuleDict(
                        (default): Linear(in_features=320, out_features=8, bias=False)
                      )
                      (lora_B): ModuleDict(
                        (default): Linear(in_features=8, out_features=320, bias=False)
                      )
                      (lora_embedding_A): ParameterDict()
                      (lora_embedding_B): ParameterDict()
                      (lora_magnitude_vector): ModuleDict()
                    )
                    (to_k): lora.Linear(
                      (base_layer): Linear(in_features=320, out_features=320, bias=False)
                      (lora_dropout): ModuleDict(
                        (default): Identity()
                      )
                      (lora_A): ModuleDict(
                        (default): Linear(in_features=320, out_features=8, bias=False)
                      )
                      (lora_B): ModuleDict(
                        (default): Linear(in_features=8, out_features=320, bias=False)
                      )
                      (lora_embedding_A): ParameterDict()
                      (lora_embedding_B): ParameterDict()
                      (lora_magnitude_vector): ModuleDict()
                    )
                    (to_v): lora.Linear(
                      (base_layer): Linear(in_features=320, out_features=320, bias=False)
                      (lora_dropout): ModuleDict(
                        (default): Identity()
                      )
                      (lora_A): ModuleDict(
                        (default): Linear(in_features=320, out_features=8, bias=False)
                      )
                      (lora_B): ModuleDict(
                        (default): Linear(in_features=8, out_features=320, bias=False)
                      )
                      (lora_embedding_A): ParameterDict()
                      (lora_embedding_B): ParameterDict()
                      (lora_magnitude_vector): ModuleDict()
                    )
                    (to_out): ModuleList(
                      (0): lora.Linear(
                        (base_layer): Linear(in_features=320, out_features=320, bias=True)
                        (lora_dropout): ModuleDict(
                          (default): Identity()
                        )
                        (lora_A): ModuleDict(
                          (default): Linear(in_features=320, out_features=8, bias=False)
                        )
                        (lora_B): ModuleDict(
                          (default): Linear(in_features=8, out_features=320, bias=False)
                        )
                        (lora_embedding_A): ParameterDict()
                        (lora_embedding_B): ParameterDict()
                        (lora_magnitude_vector): ModuleDict()
                      )
                      (1): Dropout(p=0.0, inplace=False)
                    )
                  )
                  (norm2): LayerNorm((320,), eps=1e-05, elementwise_affine=True)
                  (attn2): Attention(
                    (to_q): lora.Linear(
                      (base_layer): Linear(in_features=320, out_features=320, bias=False)
                      (lora_dropout): ModuleDict(
                        (default): Identity()
                      )
                      (lora_A): ModuleDict(
                        (default): Linear(in_features=320, out_features=8, bias=False)
                      )
                      (lora_B): ModuleDict(
                        (default): Linear(in_features=8, out_features=320, bias=False)
                      )
                      (lora_embedding_A): ParameterDict()
                      (lora_embedding_B): ParameterDict()
                      (lora_magnitude_vector): ModuleDict()
                    )
                    (to_k): lora.Linear(
                      (base_layer): Linear(in_features=768, out_features=320, bias=False)
                      (lora_dropout): ModuleDict(
                        (default): Identity()
                      )
                      (lora_A): ModuleDict(
                        (default): Linear(in_features=768, out_features=8, bias=False)
                      )
                      (lora_B): ModuleDict(
                        (default): Linear(in_features=8, out_features=320, bias=False)
                      )
                      (lora_embedding_A): ParameterDict()
                      (lora_embedding_B): ParameterDict()
                      (lora_magnitude_vector): ModuleDict()
                    )
                    (to_v): lora.Linear(
                      (base_layer): Linear(in_features=768, out_features=320, bias=False)
                      (lora_dropout): ModuleDict(
                        (default): Identity()
                      )
                      (lora_A): ModuleDict(
                        (default): Linear(in_features=768, out_features=8, bias=False)
                      )
                      (lora_B): ModuleDict(
                        (default): Linear(in_features=8, out_features=320, bias=False)
                      )
                      (lora_embedding_A): ParameterDict()
                      (lora_embedding_B): ParameterDict()
                      (lora_magnitude_vector): ModuleDict()
                    )
                    (to_out): ModuleList(
                      (0): lora.Linear(
                        (base_layer): Linear(in_features=320, out_features=320, bias=True)
                        (lora_dropout): ModuleDict(
                          (default): Identity()
                        )
                        (lora_A): ModuleDict(
                          (default): Linear(in_features=320, out_features=8, bias=False)
                        )
                        (lora_B): ModuleDict(
                          (default): Linear(in_features=8, out_features=320, bias=False)
                        )
                        (lora_embedding_A): ParameterDict()
                        (lora_embedding_B): ParameterDict()
                        (lora_magnitude_vector): ModuleDict()
                      )
                      (1): Dropout(p=0.0, inplace=False)
                    )
                  )
                  (norm3): LayerNorm((320,), eps=1e-05, elementwise_affine=True)
                  (ff): FeedForward(
                    (net): ModuleList(
                      (0): GEGLU(
                        (proj): Linear(in_features=320, out_features=2560, bias=True)
                      )
                      (1): Dropout(p=0.0, inplace=False)
                      (2): Linear(in_features=1280, out_features=320, bias=True)
                    )
                  )
                )
              )
              (proj_out): Conv2d(320, 320, kernel_size=(1, 1), stride=(1, 1))
            )
          )
          (resnets): ModuleList(
            (0-1): 2 x ResnetBlock2D(
              (norm1): GroupNorm(32, 320, eps=1e-05, affine=True)
              (conv1): Conv2d(320, 320, kernel_size=(3, 3), stride=(1, 1), padding=(1, 1))
              (time_emb_proj): Linear(in_features=1280, out_features=320, bias=True)
              (norm2): GroupNorm(32, 320, eps=1e-05, affine=True)
              (dropout): Dropout(p=0.0, inplace=False)
              (conv2): Conv2d(320, 320, kernel_size=(3, 3), stride=(1, 1), padding=(1, 1))
              (nonlinearity): SiLU()
            )
          )
          (downsamplers): ModuleList(
            (0): Downsample2D(
              (conv): Conv2d(320, 320, kernel_size=(3, 3), stride=(2, 2), padding=(1, 1))
            )
          )
        )
        (1): CrossAttnDownBlock2D(
          (attentions): ModuleList(
            (0-1): 2 x Transformer2DModel(
              (norm): GroupNorm(32, 640, eps=1e-06, affine=True)
              (proj_in): Conv2d(640, 640, kernel_size=(1, 1), stride=(1, 1))
              (transformer_blocks): ModuleList(
                (0): BasicTransformerBlock(
                  (norm1): LayerNorm((640,), eps=1e-05, elementwise_affine=True)
                  (attn1): Attention(
                    (to_q): lora.Linear(
                      (base_layer): Linear(in_features=640, out_features=640, bias=False)
                      (lora_dropout): ModuleDict(
                        (default): Identity()
                      )
                      (lora_A): ModuleDict(
                        (default): Linear(in_features=640, out_features=8, bias=False)
                      )
                      (lora_B): ModuleDict(
                        (default): Linear(in_features=8, out_features=640, bias=False)
                      )
                      (lora_embedding_A): ParameterDict()
                      (lora_embedding_B): ParameterDict()
                      (lora_magnitude_vector): ModuleDict()
                    )
                    (to_k): lora.Linear(
                      (base_layer): Linear(in_features=640, out_features=640, bias=False)
                      (lora_dropout): ModuleDict(
                        (default): Identity()
                      )
                      (lora_A): ModuleDict(
                        (default): Linear(in_features=640, out_features=8, bias=False)
                      )
                      (lora_B): ModuleDict(
                        (default): Linear(in_features=8, out_features=640, bias=False)
                      )
                      (lora_embedding_A): ParameterDict()
                      (lora_embedding_B): ParameterDict()
                      (lora_magnitude_vector): ModuleDict()
                    )
                    (to_v): lora.Linear(
                      (base_layer): Linear(in_features=640, out_features=640, bias=False)
                      (lora_dropout): ModuleDict(
                        (default): Identity()
                      )
                      (lora_A): ModuleDict(
                        (default): Linear(in_features=640, out_features=8, bias=False)
                      )
                      (lora_B): ModuleDict(
                        (default): Linear(in_features=8, out_features=640, bias=False)
                      )
                      (lora_embedding_A): ParameterDict()
                      (lora_embedding_B): ParameterDict()
                      (lora_magnitude_vector): ModuleDict()
                    )
                    (to_out): ModuleList(
                      (0): lora.Linear(
                        (base_layer): Linear(in_features=640, out_features=640, bias=True)
                        (lora_dropout): ModuleDict(
                          (default): Identity()
                        )
                        (lora_A): ModuleDict(
                          (default): Linear(in_features=640, out_features=8, bias=False)
                        )
                        (lora_B): ModuleDict(
                          (default): Linear(in_features=8, out_features=640, bias=False)
                        )
                        (lora_embedding_A): ParameterDict()
                        (lora_embedding_B): ParameterDict()
                        (lora_magnitude_vector): ModuleDict()
                      )
                      (1): Dropout(p=0.0, inplace=False)
                    )
                  )
                  (norm2): LayerNorm((640,), eps=1e-05, elementwise_affine=True)
                  (attn2): Attention(
                    (to_q): lora.Linear(
                      (base_layer): Linear(in_features=640, out_features=640, bias=False)
                      (lora_dropout): ModuleDict(
                        (default): Identity()
                      )
                      (lora_A): ModuleDict(
                        (default): Linear(in_features=640, out_features=8, bias=False)
                      )
                      (lora_B): ModuleDict(
                        (default): Linear(in_features=8, out_features=640, bias=False)
                      )
                      (lora_embedding_A): ParameterDict()
                      (lora_embedding_B): ParameterDict()
                      (lora_magnitude_vector): ModuleDict()
                    )
                    (to_k): lora.Linear(
                      (base_layer): Linear(in_features=768, out_features=640, bias=False)
                      (lora_dropout): ModuleDict(
                        (default): Identity()
                      )
                      (lora_A): ModuleDict(
                        (default): Linear(in_features=768, out_features=8, bias=False)
                      )
                      (lora_B): ModuleDict(
                        (default): Linear(in_features=8, out_features=640, bias=False)
                      )
                      (lora_embedding_A): ParameterDict()
                      (lora_embedding_B): ParameterDict()
                      (lora_magnitude_vector): ModuleDict()
                    )
                    (to_v): lora.Linear(
                      (base_layer): Linear(in_features=768, out_features=640, bias=False)
                      (lora_dropout): ModuleDict(
                        (default): Identity()
                      )
                      (lora_A): ModuleDict(
                        (default): Linear(in_features=768, out_features=8, bias=False)
                      )
                      (lora_B): ModuleDict(
                        (default): Linear(in_features=8, out_features=640, bias=False)
                      )
                      (lora_embedding_A): ParameterDict()
                      (lora_embedding_B): ParameterDict()
                      (lora_magnitude_vector): ModuleDict()
                    )
                    (to_out): ModuleList(
                      (0): lora.Linear(
                        (base_layer): Linear(in_features=640, out_features=640, bias=True)
                        (lora_dropout): ModuleDict(
                          (default): Identity()
                        )
                        (lora_A): ModuleDict(
                          (default): Linear(in_features=640, out_features=8, bias=False)
                        )
                        (lora_B): ModuleDict(
                          (default): Linear(in_features=8, out_features=640, bias=False)
                        )
                        (lora_embedding_A): ParameterDict()
                        (lora_embedding_B): ParameterDict()
                        (lora_magnitude_vector): ModuleDict()
                      )
                      (1): Dropout(p=0.0, inplace=False)
                    )
                  )
                  (norm3): LayerNorm((640,), eps=1e-05, elementwise_affine=True)
                  (ff): FeedForward(
                    (net): ModuleList(
                      (0): GEGLU(
                        (proj): Linear(in_features=640, out_features=5120, bias=True)
                      )
                      (1): Dropout(p=0.0, inplace=False)
                      (2): Linear(in_features=2560, out_features=640, bias=True)
                    )
                  )
                )
              )
              (proj_out): Conv2d(640, 640, kernel_size=(1, 1), stride=(1, 1))
            )
          )
          (resnets): ModuleList(
            (0): ResnetBlock2D(
              (norm1): GroupNorm(32, 320, eps=1e-05, affine=True)
              (conv1): Conv2d(320, 640, kernel_size=(3, 3), stride=(1, 1), padding=(1, 1))
              (time_emb_proj): Linear(in_features=1280, out_features=640, bias=True)
              (norm2): GroupNorm(32, 640, eps=1e-05, affine=True)
              (dropout): Dropout(p=0.0, inplace=False)
              (conv2): Conv2d(640, 640, kernel_size=(3, 3), stride=(1, 1), padding=(1, 1))
              (nonlinearity): SiLU()
              (conv_shortcut): Conv2d(320, 640, kernel_size=(1, 1), stride=(1, 1))
            )
            (1): ResnetBlock2D(
              (norm1): GroupNorm(32, 640, eps=1e-05, affine=True)
              (conv1): Conv2d(640, 640, kernel_size=(3, 3), stride=(1, 1), padding=(1, 1))
              (time_emb_proj): Linear(in_features=1280, out_features=640, bias=True)
              (norm2): GroupNorm(32, 640, eps=1e-05, affine=True)
              (dropout): Dropout(p=0.0, inplace=False)
              (conv2): Conv2d(640, 640, kernel_size=(3, 3), stride=(1, 1), padding=(1, 1))
              (nonlinearity): SiLU()
            )
          )
          (downsamplers): ModuleList(
            (0): Downsample2D(
              (conv): Conv2d(640, 640, kernel_size=(3, 3), stride=(2, 2), padding=(1, 1))
            )
          )
        )
        (2): CrossAttnDownBlock2D(
          (attentions): ModuleList(
            (0-1): 2 x Transformer2DModel(
              (norm): GroupNorm(32, 1280, eps=1e-06, affine=True)
              (proj_in): Conv2d(1280, 1280, kernel_size=(1, 1), stride=(1, 1))
              (transformer_blocks): ModuleList(
                (0): BasicTransformerBlock(
                  (norm1): LayerNorm((1280,), eps=1e-05, elementwise_affine=True)
                  (attn1): Attention(
                    (to_q): lora.Linear(
                      (base_layer): Linear(in_features=1280, out_features=1280, bias=False)
                      (lora_dropout): ModuleDict(
                        (default): Identity()
                      )
                      (lora_A): ModuleDict(
                        (default): Linear(in_features=1280, out_features=8, bias=False)
                      )
                      (lora_B): ModuleDict(
                        (default): Linear(in_features=8, out_features=1280, bias=False)
                      )
                      (lora_embedding_A): ParameterDict()
                      (lora_embedding_B): ParameterDict()
                      (lora_magnitude_vector): ModuleDict()
                    )
                    (to_k): lora.Linear(
                      (base_layer): Linear(in_features=1280, out_features=1280, bias=False)
                      (lora_dropout): ModuleDict(
                        (default): Identity()
                      )
                      (lora_A): ModuleDict(
                        (default): Linear(in_features=1280, out_features=8, bias=False)
                      )
                      (lora_B): ModuleDict(
                        (default): Linear(in_features=8, out_features=1280, bias=False)
                      )
                      (lora_embedding_A): ParameterDict()
                      (lora_embedding_B): ParameterDict()
                      (lora_magnitude_vector): ModuleDict()
                    )
                    (to_v): lora.Linear(
                      (base_layer): Linear(in_features=1280, out_features=1280, bias=False)
                      (lora_dropout): ModuleDict(
                        (default): Identity()
                      )
                      (lora_A): ModuleDict(
                        (default): Linear(in_features=1280, out_features=8, bias=False)
                      )
                      (lora_B): ModuleDict(
                        (default): Linear(in_features=8, out_features=1280, bias=False)
                      )
                      (lora_embedding_A): ParameterDict()
                      (lora_embedding_B): ParameterDict()
                      (lora_magnitude_vector): ModuleDict()
                    )
                    (to_out): ModuleList(
                      (0): lora.Linear(
                        (base_layer): Linear(in_features=1280, out_features=1280, bias=True)
                        (lora_dropout): ModuleDict(
                          (default): Identity()
                        )
                        (lora_A): ModuleDict(
                          (default): Linear(in_features=1280, out_features=8, bias=False)
                        )
                        (lora_B): ModuleDict(
                          (default): Linear(in_features=8, out_features=1280, bias=False)
                        )
                        (lora_embedding_A): ParameterDict()
                        (lora_embedding_B): ParameterDict()
                        (lora_magnitude_vector): ModuleDict()
                      )
                      (1): Dropout(p=0.0, inplace=False)
                    )
                  )
                  (norm2): LayerNorm((1280,), eps=1e-05, elementwise_affine=True)
                  (attn2): Attention(
                    (to_q): lora.Linear(
                      (base_layer): Linear(in_features=1280, out_features=1280, bias=False)
                      (lora_dropout): ModuleDict(
                        (default): Identity()
                      )
                      (lora_A): ModuleDict(
                        (default): Linear(in_features=1280, out_features=8, bias=False)
                      )
                      (lora_B): ModuleDict(
                        (default): Linear(in_features=8, out_features=1280, bias=False)
                      )
                      (lora_embedding_A): ParameterDict()
                      (lora_embedding_B): ParameterDict()
                      (lora_magnitude_vector): ModuleDict()
                    )
                    (to_k): lora.Linear(
                      (base_layer): Linear(in_features=768, out_features=1280, bias=False)
                      (lora_dropout): ModuleDict(
                        (default): Identity()
                      )
                      (lora_A): ModuleDict(
                        (default): Linear(in_features=768, out_features=8, bias=False)
                      )
                      (lora_B): ModuleDict(
                        (default): Linear(in_features=8, out_features=1280, bias=False)
                      )
                      (lora_embedding_A): ParameterDict()
                      (lora_embedding_B): ParameterDict()
                      (lora_magnitude_vector): ModuleDict()
                    )
                    (to_v): lora.Linear(
                      (base_layer): Linear(in_features=768, out_features=1280, bias=False)
                      (lora_dropout): ModuleDict(
                        (default): Identity()
                      )
                      (lora_A): ModuleDict(
                        (default): Linear(in_features=768, out_features=8, bias=False)
                      )
                      (lora_B): ModuleDict(
                        (default): Linear(in_features=8, out_features=1280, bias=False)
                      )
                      (lora_embedding_A): ParameterDict()
                      (lora_embedding_B): ParameterDict()
                      (lora_magnitude_vector): ModuleDict()
                    )
                    (to_out): ModuleList(
                      (0): lora.Linear(
                        (base_layer): Linear(in_features=1280, out_features=1280, bias=True)
                        (lora_dropout): ModuleDict(
                          (default): Identity()
                        )
                        (lora_A): ModuleDict(
                          (default): Linear(in_features=1280, out_features=8, bias=False)
                        )
                        (lora_B): ModuleDict(
                          (default): Linear(in_features=8, out_features=1280, bias=False)
                        )
                        (lora_embedding_A): ParameterDict()
                        (lora_embedding_B): ParameterDict()
                        (lora_magnitude_vector): ModuleDict()
                      )
                      (1): Dropout(p=0.0, inplace=False)
                    )
                  )
                  (norm3): LayerNorm((1280,), eps=1e-05, elementwise_affine=True)
                  (ff): FeedForward(
                    (net): ModuleList(
                      (0): GEGLU(
                        (proj): Linear(in_features=1280, out_features=10240, bias=True)
                      )
                      (1): Dropout(p=0.0, inplace=False)
                      (2): Linear(in_features=5120, out_features=1280, bias=True)
                    )
                  )
                )
              )
              (proj_out): Conv2d(1280, 1280, kernel_size=(1, 1), stride=(1, 1))
            )
          )
          (resnets): ModuleList(
            (0): ResnetBlock2D(
              (norm1): GroupNorm(32, 640, eps=1e-05, affine=True)
              (conv1): Conv2d(640, 1280, kernel_size=(3, 3), stride=(1, 1), padding=(1, 1))
              (time_emb_proj): Linear(in_features=1280, out_features=1280, bias=True)
              (norm2): GroupNorm(32, 1280, eps=1e-05, affine=True)
              (dropout): Dropout(p=0.0, inplace=False)
              (conv2): Conv2d(1280, 1280, kernel_size=(3, 3), stride=(1, 1), padding=(1, 1))
              (nonlinearity): SiLU()
              (conv_shortcut): Conv2d(640, 1280, kernel_size=(1, 1), stride=(1, 1))
            )
            (1): ResnetBlock2D(
              (norm1): GroupNorm(32, 1280, eps=1e-05, affine=True)
              (conv1): Conv2d(1280, 1280, kernel_size=(3, 3), stride=(1, 1), padding=(1, 1))
              (time_emb_proj): Linear(in_features=1280, out_features=1280, bias=True)
              (norm2): GroupNorm(32, 1280, eps=1e-05, affine=True)
              (dropout): Dropout(p=0.0, inplace=False)
              (conv2): Conv2d(1280, 1280, kernel_size=(3, 3), stride=(1, 1), padding=(1, 1))
              (nonlinearity): SiLU()
            )
          )
          (downsamplers): ModuleList(
            (0): Downsample2D(
              (conv): Conv2d(1280, 1280, kernel_size=(3, 3), stride=(2, 2), padding=(1, 1))
            )
          )
        )
        (3): DownBlock2D(
          (resnets): ModuleList(
            (0-1): 2 x ResnetBlock2D(
              (norm1): GroupNorm(32, 1280, eps=1e-05, affine=True)
              (conv1): Conv2d(1280, 1280, kernel_size=(3, 3), stride=(1, 1), padding=(1, 1))
              (time_emb_proj): Linear(in_features=1280, out_features=1280, bias=True)
              (norm2): GroupNorm(32, 1280, eps=1e-05, affine=True)
              (dropout): Dropout(p=0.0, inplace=False)
              (conv2): Conv2d(1280, 1280, kernel_size=(3, 3), stride=(1, 1), padding=(1, 1))
              (nonlinearity): SiLU()
            )
          )
        )
      )
      (up_blocks): ModuleList(
        (0): UpBlock2D(
          (resnets): ModuleList(
            (0-2): 3 x ResnetBlock2D(
              (norm1): GroupNorm(32, 2560, eps=1e-05, affine=True)
              (conv1): Conv2d(2560, 1280, kernel_size=(3, 3), stride=(1, 1), padding=(1, 1))
              (time_emb_proj): Linear(in_features=1280, out_features=1280, bias=True)
              (norm2): GroupNorm(32, 1280, eps=1e-05, affine=True)
              (dropout): Dropout(p=0.0, inplace=False)
              (conv2): Conv2d(1280, 1280, kernel_size=(3, 3), stride=(1, 1), padding=(1, 1))
              (nonlinearity): SiLU()
              (conv_shortcut): Conv2d(2560, 1280, kernel_size=(1, 1), stride=(1, 1))
            )
          )
          (upsamplers): ModuleList(
            (0): Upsample2D(
              (conv): Conv2d(1280, 1280, kernel_size=(3, 3), stride=(1, 1), padding=(1, 1))
            )
          )
        )
        (1): CrossAttnUpBlock2D(
          (attentions): ModuleList(
            (0-2): 3 x Transformer2DModel(
              (norm): GroupNorm(32, 1280, eps=1e-06, affine=True)
              (proj_in): Conv2d(1280, 1280, kernel_size=(1, 1), stride=(1, 1))
              (transformer_blocks): ModuleList(
                (0): BasicTransformerBlock(
                  (norm1): LayerNorm((1280,), eps=1e-05, elementwise_affine=True)
                  (attn1): Attention(
                    (to_q): lora.Linear(
                      (base_layer): Linear(in_features=1280, out_features=1280, bias=False)
                      (lora_dropout): ModuleDict(
                        (default): Identity()
                      )
                      (lora_A): ModuleDict(
                        (default): Linear(in_features=1280, out_features=8, bias=False)
                      )
                      (lora_B): ModuleDict(
                        (default): Linear(in_features=8, out_features=1280, bias=False)
                      )
                      (lora_embedding_A): ParameterDict()
                      (lora_embedding_B): ParameterDict()
                      (lora_magnitude_vector): ModuleDict()
                    )
                    (to_k): lora.Linear(
                      (base_layer): Linear(in_features=1280, out_features=1280, bias=False)
                      (lora_dropout): ModuleDict(
                        (default): Identity()
                      )
                      (lora_A): ModuleDict(
                        (default): Linear(in_features=1280, out_features=8, bias=False)
                      )
                      (lora_B): ModuleDict(
                        (default): Linear(in_features=8, out_features=1280, bias=False)
                      )
                      (lora_embedding_A): ParameterDict()
                      (lora_embedding_B): ParameterDict()
                      (lora_magnitude_vector): ModuleDict()
                    )
                    (to_v): lora.Linear(
                      (base_layer): Linear(in_features=1280, out_features=1280, bias=False)
                      (lora_dropout): ModuleDict(
                        (default): Identity()
                      )
                      (lora_A): ModuleDict(
                        (default): Linear(in_features=1280, out_features=8, bias=False)
                      )
                      (lora_B): ModuleDict(
                        (default): Linear(in_features=8, out_features=1280, bias=False)
                      )
                      (lora_embedding_A): ParameterDict()
                      (lora_embedding_B): ParameterDict()
                      (lora_magnitude_vector): ModuleDict()
                    )
                    (to_out): ModuleList(
                      (0): lora.Linear(
                        (base_layer): Linear(in_features=1280, out_features=1280, bias=True)
                        (lora_dropout): ModuleDict(
                          (default): Identity()
                        )
                        (lora_A): ModuleDict(
                          (default): Linear(in_features=1280, out_features=8, bias=False)
                        )
                        (lora_B): ModuleDict(
                          (default): Linear(in_features=8, out_features=1280, bias=False)
                        )
                        (lora_embedding_A): ParameterDict()
                        (lora_embedding_B): ParameterDict()
                        (lora_magnitude_vector): ModuleDict()
                      )
                      (1): Dropout(p=0.0, inplace=False)
                    )
                  )
                  (norm2): LayerNorm((1280,), eps=1e-05, elementwise_affine=True)
                  (attn2): Attention(
                    (to_q): lora.Linear(
                      (base_layer): Linear(in_features=1280, out_features=1280, bias=False)
                      (lora_dropout): ModuleDict(
                        (default): Identity()
                      )
                      (lora_A): ModuleDict(
                        (default): Linear(in_features=1280, out_features=8, bias=False)
                      )
                      (lora_B): ModuleDict(
                        (default): Linear(in_features=8, out_features=1280, bias=False)
                      )
                      (lora_embedding_A): ParameterDict()
                      (lora_embedding_B): ParameterDict()
                      (lora_magnitude_vector): ModuleDict()
                    )
                    (to_k): lora.Linear(
                      (base_layer): Linear(in_features=768, out_features=1280, bias=False)
                      (lora_dropout): ModuleDict(
                        (default): Identity()
                      )
                      (lora_A): ModuleDict(
                        (default): Linear(in_features=768, out_features=8, bias=False)
                      )
                      (lora_B): ModuleDict(
                        (default): Linear(in_features=8, out_features=1280, bias=False)
                      )
                      (lora_embedding_A): ParameterDict()
                      (lora_embedding_B): ParameterDict()
                      (lora_magnitude_vector): ModuleDict()
                    )
                    (to_v): lora.Linear(
                      (base_layer): Linear(in_features=768, out_features=1280, bias=False)
                      (lora_dropout): ModuleDict(
                        (default): Identity()
                      )
                      (lora_A): ModuleDict(
                        (default): Linear(in_features=768, out_features=8, bias=False)
                      )
                      (lora_B): ModuleDict(
                        (default): Linear(in_features=8, out_features=1280, bias=False)
                      )
                      (lora_embedding_A): ParameterDict()
                      (lora_embedding_B): ParameterDict()
                      (lora_magnitude_vector): ModuleDict()
                    )
                    (to_out): ModuleList(
                      (0): lora.Linear(
                        (base_layer): Linear(in_features=1280, out_features=1280, bias=True)
                        (lora_dropout): ModuleDict(
                          (default): Identity()
                        )
                        (lora_A): ModuleDict(
                          (default): Linear(in_features=1280, out_features=8, bias=False)
                        )
                        (lora_B): ModuleDict(
                          (default): Linear(in_features=8, out_features=1280, bias=False)
                        )
                        (lora_embedding_A): ParameterDict()
                        (lora_embedding_B): ParameterDict()
                        (lora_magnitude_vector): ModuleDict()
                      )
                      (1): Dropout(p=0.0, inplace=False)
                    )
                  )
                  (norm3): LayerNorm((1280,), eps=1e-05, elementwise_affine=True)
                  (ff): FeedForward(
                    (net): ModuleList(
                      (0): GEGLU(
                        (proj): Linear(in_features=1280, out_features=10240, bias=True)
                      )
                      (1): Dropout(p=0.0, inplace=False)
                      (2): Linear(in_features=5120, out_features=1280, bias=True)
                    )
                  )
                )
              )
              (proj_out): Conv2d(1280, 1280, kernel_size=(1, 1), stride=(1, 1))
            )
          )
          (resnets): ModuleList(
            (0-1): 2 x ResnetBlock2D(
              (norm1): GroupNorm(32, 2560, eps=1e-05, affine=True)
              (conv1): Conv2d(2560, 1280, kernel_size=(3, 3), stride=(1, 1), padding=(1, 1))
              (time_emb_proj): Linear(in_features=1280, out_features=1280, bias=True)
              (norm2): GroupNorm(32, 1280, eps=1e-05, affine=True)
              (dropout): Dropout(p=0.0, inplace=False)
              (conv2): Conv2d(1280, 1280, kernel_size=(3, 3), stride=(1, 1), padding=(1, 1))
              (nonlinearity): SiLU()
              (conv_shortcut): Conv2d(2560, 1280, kernel_size=(1, 1), stride=(1, 1))
            )
            (2): ResnetBlock2D(
              (norm1): GroupNorm(32, 1920, eps=1e-05, affine=True)
              (conv1): Conv2d(1920, 1280, kernel_size=(3, 3), stride=(1, 1), padding=(1, 1))
              (time_emb_proj): Linear(in_features=1280, out_features=1280, bias=True)
              (norm2): GroupNorm(32, 1280, eps=1e-05, affine=True)
              (dropout): Dropout(p=0.0, inplace=False)
              (conv2): Conv2d(1280, 1280, kernel_size=(3, 3), stride=(1, 1), padding=(1, 1))
              (nonlinearity): SiLU()
              (conv_shortcut): Conv2d(1920, 1280, kernel_size=(1, 1), stride=(1, 1))
            )
          )
          (upsamplers): ModuleList(
            (0): Upsample2D(
              (conv): Conv2d(1280, 1280, kernel_size=(3, 3), stride=(1, 1), padding=(1, 1))
            )
          )
        )
        (2): CrossAttnUpBlock2D(
          (attentions): ModuleList(
            (0-2): 3 x Transformer2DModel(
              (norm): GroupNorm(32, 640, eps=1e-06, affine=True)
              (proj_in): Conv2d(640, 640, kernel_size=(1, 1), stride=(1, 1))
              (transformer_blocks): ModuleList(
                (0): BasicTransformerBlock(
                  (norm1): LayerNorm((640,), eps=1e-05, elementwise_affine=True)
                  (attn1): Attention(
                    (to_q): lora.Linear(
                      (base_layer): Linear(in_features=640, out_features=640, bias=False)
                      (lora_dropout): ModuleDict(
                        (default): Identity()
                      )
                      (lora_A): ModuleDict(
                        (default): Linear(in_features=640, out_features=8, bias=False)
                      )
                      (lora_B): ModuleDict(
                        (default): Linear(in_features=8, out_features=640, bias=False)
                      )
                      (lora_embedding_A): ParameterDict()
                      (lora_embedding_B): ParameterDict()
                      (lora_magnitude_vector): ModuleDict()
                    )
                    (to_k): lora.Linear(
                      (base_layer): Linear(in_features=640, out_features=640, bias=False)
                      (lora_dropout): ModuleDict(
                        (default): Identity()
                      )
                      (lora_A): ModuleDict(
                        (default): Linear(in_features=640, out_features=8, bias=False)
                      )
                      (lora_B): ModuleDict(
                        (default): Linear(in_features=8, out_features=640, bias=False)
                      )
                      (lora_embedding_A): ParameterDict()
                      (lora_embedding_B): ParameterDict()
                      (lora_magnitude_vector): ModuleDict()
                    )
                    (to_v): lora.Linear(
                      (base_layer): Linear(in_features=640, out_features=640, bias=False)
                      (lora_dropout): ModuleDict(
                        (default): Identity()
                      )
                      (lora_A): ModuleDict(
                        (default): Linear(in_features=640, out_features=8, bias=False)
                      )
                      (lora_B): ModuleDict(
                        (default): Linear(in_features=8, out_features=640, bias=False)
                      )
                      (lora_embedding_A): ParameterDict()
                      (lora_embedding_B): ParameterDict()
                      (lora_magnitude_vector): ModuleDict()
                    )
                    (to_out): ModuleList(
                      (0): lora.Linear(
                        (base_layer): Linear(in_features=640, out_features=640, bias=True)
                        (lora_dropout): ModuleDict(
                          (default): Identity()
                        )
                        (lora_A): ModuleDict(
                          (default): Linear(in_features=640, out_features=8, bias=False)
                        )
                        (lora_B): ModuleDict(
                          (default): Linear(in_features=8, out_features=640, bias=False)
                        )
                        (lora_embedding_A): ParameterDict()
                        (lora_embedding_B): ParameterDict()
                        (lora_magnitude_vector): ModuleDict()
                      )
                      (1): Dropout(p=0.0, inplace=False)
                    )
                  )
                  (norm2): LayerNorm((640,), eps=1e-05, elementwise_affine=True)
                  (attn2): Attention(
                    (to_q): lora.Linear(
                      (base_layer): Linear(in_features=640, out_features=640, bias=False)
                      (lora_dropout): ModuleDict(
                        (default): Identity()
                      )
                      (lora_A): ModuleDict(
                        (default): Linear(in_features=640, out_features=8, bias=False)
                      )
                      (lora_B): ModuleDict(
                        (default): Linear(in_features=8, out_features=640, bias=False)
                      )
                      (lora_embedding_A): ParameterDict()
                      (lora_embedding_B): ParameterDict()
                      (lora_magnitude_vector): ModuleDict()
                    )
                    (to_k): lora.Linear(
                      (base_layer): Linear(in_features=768, out_features=640, bias=False)
                      (lora_dropout): ModuleDict(
                        (default): Identity()
                      )
                      (lora_A): ModuleDict(
                        (default): Linear(in_features=768, out_features=8, bias=False)
                      )
                      (lora_B): ModuleDict(
                        (default): Linear(in_features=8, out_features=640, bias=False)
                      )
                      (lora_embedding_A): ParameterDict()
                      (lora_embedding_B): ParameterDict()
                      (lora_magnitude_vector): ModuleDict()
                    )
                    (to_v): lora.Linear(
                      (base_layer): Linear(in_features=768, out_features=640, bias=False)
                      (lora_dropout): ModuleDict(
                        (default): Identity()
                      )
                      (lora_A): ModuleDict(
                        (default): Linear(in_features=768, out_features=8, bias=False)
                      )
                      (lora_B): ModuleDict(
                        (default): Linear(in_features=8, out_features=640, bias=False)
                      )
                      (lora_embedding_A): ParameterDict()
                      (lora_embedding_B): ParameterDict()
                      (lora_magnitude_vector): ModuleDict()
                    )
                    (to_out): ModuleList(
                      (0): lora.Linear(
                        (base_layer): Linear(in_features=640, out_features=640, bias=True)
                        (lora_dropout): ModuleDict(
                          (default): Identity()
                        )
                        (lora_A): ModuleDict(
                          (default): Linear(in_features=640, out_features=8, bias=False)
                        )
                        (lora_B): ModuleDict(
                          (default): Linear(in_features=8, out_features=640, bias=False)
                        )
                        (lora_embedding_A): ParameterDict()
                        (lora_embedding_B): ParameterDict()
                        (lora_magnitude_vector): ModuleDict()
                      )
                      (1): Dropout(p=0.0, inplace=False)
                    )
                  )
                  (norm3): LayerNorm((640,), eps=1e-05, elementwise_affine=True)
                  (ff): FeedForward(
                    (net): ModuleList(
                      (0): GEGLU(
                        (proj): Linear(in_features=640, out_features=5120, bias=True)
                      )
                      (1): Dropout(p=0.0, inplace=False)
                      (2): Linear(in_features=2560, out_features=640, bias=True)
                    )
                  )
                )
              )
              (proj_out): Conv2d(640, 640, kernel_size=(1, 1), stride=(1, 1))
            )
          )
          (resnets): ModuleList(
            (0): ResnetBlock2D(
              (norm1): GroupNorm(32, 1920, eps=1e-05, affine=True)
              (conv1): Conv2d(1920, 640, kernel_size=(3, 3), stride=(1, 1), padding=(1, 1))
              (time_emb_proj): Linear(in_features=1280, out_features=640, bias=True)
              (norm2): GroupNorm(32, 640, eps=1e-05, affine=True)
              (dropout): Dropout(p=0.0, inplace=False)
              (conv2): Conv2d(640, 640, kernel_size=(3, 3), stride=(1, 1), padding=(1, 1))
              (nonlinearity): SiLU()
              (conv_shortcut): Conv2d(1920, 640, kernel_size=(1, 1), stride=(1, 1))
            )
            (1): ResnetBlock2D(
              (norm1): GroupNorm(32, 1280, eps=1e-05, affine=True)
              (conv1): Conv2d(1280, 640, kernel_size=(3, 3), stride=(1, 1), padding=(1, 1))
              (time_emb_proj): Linear(in_features=1280, out_features=640, bias=True)
              (norm2): GroupNorm(32, 640, eps=1e-05, affine=True)
              (dropout): Dropout(p=0.0, inplace=False)
              (conv2): Conv2d(640, 640, kernel_size=(3, 3), stride=(1, 1), padding=(1, 1))
              (nonlinearity): SiLU()
              (conv_shortcut): Conv2d(1280, 640, kernel_size=(1, 1), stride=(1, 1))
            )
            (2): ResnetBlock2D(
              (norm1): GroupNorm(32, 960, eps=1e-05, affine=True)
              (conv1): Conv2d(960, 640, kernel_size=(3, 3), stride=(1, 1), padding=(1, 1))
              (time_emb_proj): Linear(in_features=1280, out_features=640, bias=True)
              (norm2): GroupNorm(32, 640, eps=1e-05, affine=True)
              (dropout): Dropout(p=0.0, inplace=False)
              (conv2): Conv2d(640, 640, kernel_size=(3, 3), stride=(1, 1), padding=(1, 1))
              (nonlinearity): SiLU()
              (conv_shortcut): Conv2d(960, 640, kernel_size=(1, 1), stride=(1, 1))
            )
          )
          (upsamplers): ModuleList(
            (0): Upsample2D(
              (conv): Conv2d(640, 640, kernel_size=(3, 3), stride=(1, 1), padding=(1, 1))
            )
          )
        )
        (3): CrossAttnUpBlock2D(
          (attentions): ModuleList(
            (0-2): 3 x Transformer2DModel(
              (norm): GroupNorm(32, 320, eps=1e-06, affine=True)
              (proj_in): Conv2d(320, 320, kernel_size=(1, 1), stride=(1, 1))
              (transformer_blocks): ModuleList(
                (0): BasicTransformerBlock(
                  (norm1): LayerNorm((320,), eps=1e-05, elementwise_affine=True)
                  (attn1): Attention(
                    (to_q): lora.Linear(
                      (base_layer): Linear(in_features=320, out_features=320, bias=False)
                      (lora_dropout): ModuleDict(
                        (default): Identity()
                      )
                      (lora_A): ModuleDict(
                        (default): Linear(in_features=320, out_features=8, bias=False)
                      )
                      (lora_B): ModuleDict(
                        (default): Linear(in_features=8, out_features=320, bias=False)
                      )
                      (lora_embedding_A): ParameterDict()
                      (lora_embedding_B): ParameterDict()
                      (lora_magnitude_vector): ModuleDict()
                    )
                    (to_k): lora.Linear(
                      (base_layer): Linear(in_features=320, out_features=320, bias=False)
                      (lora_dropout): ModuleDict(
                        (default): Identity()
                      )
                      (lora_A): ModuleDict(
                        (default): Linear(in_features=320, out_features=8, bias=False)
                      )
                      (lora_B): ModuleDict(
                        (default): Linear(in_features=8, out_features=320, bias=False)
                      )
                      (lora_embedding_A): ParameterDict()
                      (lora_embedding_B): ParameterDict()
                      (lora_magnitude_vector): ModuleDict()
                    )
                    (to_v): lora.Linear(
                      (base_layer): Linear(in_features=320, out_features=320, bias=False)
                      (lora_dropout): ModuleDict(
                        (default): Identity()
                      )
                      (lora_A): ModuleDict(
                        (default): Linear(in_features=320, out_features=8, bias=False)
                      )
                      (lora_B): ModuleDict(
                        (default): Linear(in_features=8, out_features=320, bias=False)
                      )
                      (lora_embedding_A): ParameterDict()
                      (lora_embedding_B): ParameterDict()
                      (lora_magnitude_vector): ModuleDict()
                    )
                    (to_out): ModuleList(
                      (0): lora.Linear(
                        (base_layer): Linear(in_features=320, out_features=320, bias=True)
                        (lora_dropout): ModuleDict(
                          (default): Identity()
                        )
                        (lora_A): ModuleDict(
                          (default): Linear(in_features=320, out_features=8, bias=False)
                        )
                        (lora_B): ModuleDict(
                          (default): Linear(in_features=8, out_features=320, bias=False)
                        )
                        (lora_embedding_A): ParameterDict()
                        (lora_embedding_B): ParameterDict()
                        (lora_magnitude_vector): ModuleDict()
                      )
                      (1): Dropout(p=0.0, inplace=False)
                    )
                  )
                  (norm2): LayerNorm((320,), eps=1e-05, elementwise_affine=True)
                  (attn2): Attention(
                    (to_q): lora.Linear(
                      (base_layer): Linear(in_features=320, out_features=320, bias=False)
                      (lora_dropout): ModuleDict(
                        (default): Identity()
                      )
                      (lora_A): ModuleDict(
                        (default): Linear(in_features=320, out_features=8, bias=False)
                      )
                      (lora_B): ModuleDict(
                        (default): Linear(in_features=8, out_features=320, bias=False)
                      )
                      (lora_embedding_A): ParameterDict()
                      (lora_embedding_B): ParameterDict()
                      (lora_magnitude_vector): ModuleDict()
                    )
                    (to_k): lora.Linear(
                      (base_layer): Linear(in_features=768, out_features=320, bias=False)
                      (lora_dropout): ModuleDict(
                        (default): Identity()
                      )
                      (lora_A): ModuleDict(
                        (default): Linear(in_features=768, out_features=8, bias=False)
                      )
                      (lora_B): ModuleDict(
                        (default): Linear(in_features=8, out_features=320, bias=False)
                      )
                      (lora_embedding_A): ParameterDict()
                      (lora_embedding_B): ParameterDict()
                      (lora_magnitude_vector): ModuleDict()
                    )
                    (to_v): lora.Linear(
                      (base_layer): Linear(in_features=768, out_features=320, bias=False)
                      (lora_dropout): ModuleDict(
                        (default): Identity()
                      )
                      (lora_A): ModuleDict(
                        (default): Linear(in_features=768, out_features=8, bias=False)
                      )
                      (lora_B): ModuleDict(
                        (default): Linear(in_features=8, out_features=320, bias=False)
                      )
                      (lora_embedding_A): ParameterDict()
                      (lora_embedding_B): ParameterDict()
                      (lora_magnitude_vector): ModuleDict()
                    )
                    (to_out): ModuleList(
                      (0): lora.Linear(
                        (base_layer): Linear(in_features=320, out_features=320, bias=True)
                        (lora_dropout): ModuleDict(
                          (default): Identity()
                        )
                        (lora_A): ModuleDict(
                          (default): Linear(in_features=320, out_features=8, bias=False)
                        )
                        (lora_B): ModuleDict(
                          (default): Linear(in_features=8, out_features=320, bias=False)
                        )
                        (lora_embedding_A): ParameterDict()
                        (lora_embedding_B): ParameterDict()
                        (lora_magnitude_vector): ModuleDict()
                      )
                      (1): Dropout(p=0.0, inplace=False)
                    )
                  )
                  (norm3): LayerNorm((320,), eps=1e-05, elementwise_affine=True)
                  (ff): FeedForward(
                    (net): ModuleList(
                      (0): GEGLU(
                        (proj): Linear(in_features=320, out_features=2560, bias=True)
                      )
                      (1): Dropout(p=0.0, inplace=False)
                      (2): Linear(in_features=1280, out_features=320, bias=True)
                    )
                  )
                )
              )
              (proj_out): Conv2d(320, 320, kernel_size=(1, 1), stride=(1, 1))
            )
          )
          (resnets): ModuleList(
            (0): ResnetBlock2D(
              (norm1): GroupNorm(32, 960, eps=1e-05, affine=True)
              (conv1): Conv2d(960, 320, kernel_size=(3, 3), stride=(1, 1), padding=(1, 1))
              (time_emb_proj): Linear(in_features=1280, out_features=320, bias=True)
              (norm2): GroupNorm(32, 320, eps=1e-05, affine=True)
              (dropout): Dropout(p=0.0, inplace=False)
              (conv2): Conv2d(320, 320, kernel_size=(3, 3), stride=(1, 1), padding=(1, 1))
              (nonlinearity): SiLU()
              (conv_shortcut): Conv2d(960, 320, kernel_size=(1, 1), stride=(1, 1))
            )
            (1-2): 2 x ResnetBlock2D(
              (norm1): GroupNorm(32, 640, eps=1e-05, affine=True)
              (conv1): Conv2d(640, 320, kernel_size=(3, 3), stride=(1, 1), padding=(1, 1))
              (time_emb_proj): Linear(in_features=1280, out_features=320, bias=True)
              (norm2): GroupNorm(32, 320, eps=1e-05, affine=True)
              (dropout): Dropout(p=0.0, inplace=False)
              (conv2): Conv2d(320, 320, kernel_size=(3, 3), stride=(1, 1), padding=(1, 1))
              (nonlinearity): SiLU()
              (conv_shortcut): Conv2d(640, 320, kernel_size=(1, 1), stride=(1, 1))
            )
          )
        )
      )
      (mid_block): UNetMidBlock2DCrossAttn(
        (attentions): ModuleList(
          (0): Transformer2DModel(
            (norm): GroupNorm(32, 1280, eps=1e-06, affine=True)
            (proj_in): Conv2d(1280, 1280, kernel_size=(1, 1), stride=(1, 1))
            (transformer_blocks): ModuleList(
              (0): BasicTransformerBlock(
                (norm1): LayerNorm((1280,), eps=1e-05, elementwise_affine=True)
                (attn1): Attention(
                  (to_q): lora.Linear(
                    (base_layer): Linear(in_features=1280, out_features=1280, bias=False)
                    (lora_dropout): ModuleDict(
                      (default): Identity()
                    )
                    (lora_A): ModuleDict(
                      (default): Linear(in_features=1280, out_features=8, bias=False)
                    )
                    (lora_B): ModuleDict(
                      (default): Linear(in_features=8, out_features=1280, bias=False)
                    )
                    (lora_embedding_A): ParameterDict()
                    (lora_embedding_B): ParameterDict()
                    (lora_magnitude_vector): ModuleDict()
                  )
                  (to_k): lora.Linear(
                    (base_layer): Linear(in_features=1280, out_features=1280, bias=False)
                    (lora_dropout): ModuleDict(
                      (default): Identity()
                    )
                    (lora_A): ModuleDict(
                      (default): Linear(in_features=1280, out_features=8, bias=False)
                    )
                    (lora_B): ModuleDict(
                      (default): Linear(in_features=8, out_features=1280, bias=False)
                    )
                    (lora_embedding_A): ParameterDict()
                    (lora_embedding_B): ParameterDict()
                    (lora_magnitude_vector): ModuleDict()
                  )
                  (to_v): lora.Linear(
                    (base_layer): Linear(in_features=1280, out_features=1280, bias=False)
                    (lora_dropout): ModuleDict(
                      (default): Identity()
                    )
                    (lora_A): ModuleDict(
                      (default): Linear(in_features=1280, out_features=8, bias=False)
                    )
                    (lora_B): ModuleDict(
                      (default): Linear(in_features=8, out_features=1280, bias=False)
                    )
                    (lora_embedding_A): ParameterDict()
                    (lora_embedding_B): ParameterDict()
                    (lora_magnitude_vector): ModuleDict()
                  )
                  (to_out): ModuleList(
                    (0): lora.Linear(
                      (base_layer): Linear(in_features=1280, out_features=1280, bias=True)
                      (lora_dropout): ModuleDict(
                        (default): Identity()
                      )
                      (lora_A): ModuleDict(
                        (default): Linear(in_features=1280, out_features=8, bias=False)
                      )
                      (lora_B): ModuleDict(
                        (default): Linear(in_features=8, out_features=1280, bias=False)
                      )
                      (lora_embedding_A): ParameterDict()
                      (lora_embedding_B): ParameterDict()
                      (lora_magnitude_vector): ModuleDict()
                    )
                    (1): Dropout(p=0.0, inplace=False)
                  )
                )
                (norm2): LayerNorm((1280,), eps=1e-05, elementwise_affine=True)
                (attn2): Attention(
                  (to_q): lora.Linear(
                    (base_layer): Linear(in_features=1280, out_features=1280, bias=False)
                    (lora_dropout): ModuleDict(
                      (default): Identity()
                    )
                    (lora_A): ModuleDict(
                      (default): Linear(in_features=1280, out_features=8, bias=False)
                    )
                    (lora_B): ModuleDict(
                      (default): Linear(in_features=8, out_features=1280, bias=False)
                    )
                    (lora_embedding_A): ParameterDict()
                    (lora_embedding_B): ParameterDict()
                    (lora_magnitude_vector): ModuleDict()
                  )
                  (to_k): lora.Linear(
                    (base_layer): Linear(in_features=768, out_features=1280, bias=False)
                    (lora_dropout): ModuleDict(
                      (default): Identity()
                    )
                    (lora_A): ModuleDict(
                      (default): Linear(in_features=768, out_features=8, bias=False)
                    )
                    (lora_B): ModuleDict(
                      (default): Linear(in_features=8, out_features=1280, bias=False)
                    )
                    (lora_embedding_A): ParameterDict()
                    (lora_embedding_B): ParameterDict()
                    (lora_magnitude_vector): ModuleDict()
                  )
                  (to_v): lora.Linear(
                    (base_layer): Linear(in_features=768, out_features=1280, bias=False)
                    (lora_dropout): ModuleDict(
                      (default): Identity()
                    )
                    (lora_A): ModuleDict(
                      (default): Linear(in_features=768, out_features=8, bias=False)
                    )
                    (lora_B): ModuleDict(
                      (default): Linear(in_features=8, out_features=1280, bias=False)
                    )
                    (lora_embedding_A): ParameterDict()
                    (lora_embedding_B): ParameterDict()
                    (lora_magnitude_vector): ModuleDict()
                  )
                  (to_out): ModuleList(
                    (0): lora.Linear(
                      (base_layer): Linear(in_features=1280, out_features=1280, bias=True)
                      (lora_dropout): ModuleDict(
                        (default): Identity()
                      )
                      (lora_A): ModuleDict(
                        (default): Linear(in_features=1280, out_features=8, bias=False)
                      )
                      (lora_B): ModuleDict(
                        (default): Linear(in_features=8, out_features=1280, bias=False)
                      )
                      (lora_embedding_A): ParameterDict()
                      (lora_embedding_B): ParameterDict()
                      (lora_magnitude_vector): ModuleDict()
                    )
                    (1): Dropout(p=0.0, inplace=False)
                  )
                )
                (norm3): LayerNorm((1280,), eps=1e-05, elementwise_affine=True)
                (ff): FeedForward(
                  (net): ModuleList(
                    (0): GEGLU(
                      (proj): Linear(in_features=1280, out_features=10240, bias=True)
                    )
                    (1): Dropout(p=0.0, inplace=False)
                    (2): Linear(in_features=5120, out_features=1280, bias=True)
                  )
                )
              )
            )
            (proj_out): Conv2d(1280, 1280, kernel_size=(1, 1), stride=(1, 1))
          )
        )
        (resnets): ModuleList(
          (0-1): 2 x ResnetBlock2D(
            (norm1): GroupNorm(32, 1280, eps=1e-05, affine=True)
            (conv1): Conv2d(1280, 1280, kernel_size=(3, 3), stride=(1, 1), padding=(1, 1))
            (time_emb_proj): Linear(in_features=1280, out_features=1280, bias=True)
            (norm2): GroupNorm(32, 1280, eps=1e-05, affine=True)
            (dropout): Dropout(p=0.0, inplace=False)
            (conv2): Conv2d(1280, 1280, kernel_size=(3, 3), stride=(1, 1), padding=(1, 1))
            (nonlinearity): SiLU()
          )
        )
      )
      (conv_norm_out): GroupNorm(32, 320, eps=1e-05, affine=True)
      (conv_act): SiLU()
      (conv_out): Conv2d(320, 4, kernel_size=(3, 3), stride=(1, 1), padding=(1, 1))
    )
  )
) of type <class 'peft.peft_model.PeftModel'> cannot be saved.
2025-10-27 04:48:56 - INFO - __main__ - Pipeline completo salvo em: /Users/jwcunha/Documents/COMPANIES/AB/repos/private/premium/researcher/phd-classes/shoes-tranning/training/outputs/lora_casual_shoes_3000steps/final_pipeline
2025-10-27 04:48:56 - INFO - __main__ - Treinamento concluído!
…
